mental-health/data.pth (torch, 19498 bytes, 6 tensors)

l1.weight f4 [8, 280]
00000000: 80ca 96bd 7c91 00bf 0980 dfbe 3167 663f
00000010: 6ef3 d63d a884 f3bc 72cb a1be 055e 513e
00000020: d670 87bd f456 c23e 5e74 883e b1be 6c3f
00000030: 98c7 41bd 4662 703f 7436 1bbf 6cf4 bb3e
00000040: 085a efbd 6101 123e 54e1 b23e 7af9 edbe
00000050: 7f9c e63e 55a5 273d 304f 3ebf 2d24 c53f
00000060: da40 283e 9b01 ea3f 53a2 aa3e 4fce dcbd
00000070: 9311 e03d a7fd 45be f693 2c3f 4a7a edbd
00000080: 2fbb 19bf 80e6 863f 1ce2 c23e dfa4 89bd
00000090: 5b53 f1be 3871 0bbd 2ca8 86bf 7ee1 0d3f
000000a0: 5bf9 b73f 6fcb 7ebf 50cc 3dbf c99e 543e
000000b0: 18d1 853f cfd7 c6bf e74d 733f 34ad be3f
000000c0: 2f5f 0d3f 5f58 933e 46fb c93f ee1e f9bd
000000d0: 3ecf 33bf e65b 1cbf b645 113f a44b 09bf
000000e0: ea96 b2bd 3003 28bd 55f6 323f 582a da3f
000000f0: 431a babf 23cc e13e 6bbc 303f fb5a fa3e
00000100: e43e 3e3f f087 323f 20dd 39bf 7995 18bf
00000110: 4a02 cb3f b234 143f 935c ce3e 9d1b ae3e
00000120: 57b3 183f bc51 683d 7d5a cb3f ab4e a23f
00000130: ac52 5c3d d946 01be 3eba 0a3f a2d1 4cbf
00000140: b414 80be f9ce f9be ebdd 223f b1d7 23bf
00000150: e700 6c3e c17a 96be 916d eebd 8ca2 0f40
00000160: b940 dabc 9548 983f de1f 1dbf 2c77 13be
00000170: c452 ab3e 819a 77bf 91b1 213f 4bec 403f
00000180: c49c 1c3f e348 483f fd2d ff3e 0b04 1c3d
00000190: d993 1640 f366 773f 1e2b 5d3e 75e6 183f
000001a0: 56be 4cbe d867 48bf cc84 a83e d1d7 57ba
000001b0: 783a b53f 67e5 723f cac3 d13f 7578 d43f
000001c0: f817 3ebd 2911 b23f 455d 03bf 44a1 bb3f
000001d0: 214b 473f 7c9e 58be 01ca 533f 6375 b4bf
000001e0: 0a03 323f 08f0 3bbf 161d 3f3e 0d1e 723f
000001f0: 5320 02bf 366f ac3e 00ed d1bd ca2b 3abf
00000200: cb71 43bf 4af0 0a40 4597 c03f 55b0 a0be
00000210: 5e25 bd3f c8a1 963e a9d8 123f 2f06 973f
00000220: 940a 46be d8ba a8be e65f bf3e 5e5e 823f
00000230: 8374 bebb f48a 35bf 90b5 ebbe fbc2 2d3f
00000240: d43f 90bf a116 363f 4eaf aabd d45e 24bd
00000250: 35bc 0a3f 411a e93e 2e79 783f ef80 7ebf
00000260: 63f9 433f 43e5 903e 0f70 6d3e e9db fc3f
00000270: eb9b 64bd 5df4 31bf f282 393f a488 3d3e
00000280: 3705 edbd 79c5 0c40 56f8 7abe 35d3 0f40
00000290: d7e1 83be 962f 3c3f b692 f53e 92b6 4abf
000002a0: 5673 493e 95de b43f 6ca9 1f40 ffa4 0c40
000002b0: b600 b83f 0112 b23e e00f d53f 06e7 833e
000002c0: 1d02 0bbe b13c 25bf e305 8dbf 9cf2 ed3f
000002d0: 4996 8a3e a5b0 543e 89c4 503f d997 33bf
000002e0: 4722 acbb 3568 c3bd 7883 0e3f fc30 2bbe
000002f0: 1257 d3be ecb6 bc3c b250 913e 0d96 ff3e
00000300: 4162 413e 547a 6fbf 9340 883f 8459 ec3e
00000310: f518 3f3f 7049 09bf 82aa 5bbc 3618 8c3e
00000320: 989f 16bf cb1c ddba aa7a 393f 0e1f 8dbf
00000330: e627 a73f 87c3 26be 9551 323f 12f6 a93e
00000340: 8744 e13e 3239 443f b4b9 2f3f 35c6 21bf
00000350: 6259 993e 6af3 1c3f a693 eebe ea30 0f3f
00000360: edd8 883f 524d af3e bc25 75be 3c2e 53bd
00000370: 20a8 74bf 4613 763f ae36 07c0 b876 bebf
00000380: 82f4 ba3f ea75 09be 10fd ee3e 8ec2 453f
00000390: b487 843e d690 ba3e 69d5 6f3f ae70 763f
000003a0: 455b f73d 3c38 5ebf 885e 9b3f 038c 2c40
000003b0: 679e 843f a528 4b3f 07c4 183f dce3 0e3f
000003c0: bfea 5dbf ad54 90be 3573 a23f 2c37 b93e
000003d0: 2fca 413f d41b c43e 498f 24bf 0d22 1c3f
000003e0: 7c4e e93e 0191 943d 1e2b 5a3c d09e 043f
000003f0: 4592 ee3e ca54 13bf acac e23d 9ba6 ed3e
-0.073628426 -0.5022199 -0.4365237 0.9000121 0.10495649 -0.029726341 -0.3160053 0.20446022
-0.066133186 0.37956965 0.2665128 0.9247847 -0.047309488 0.93899953 -0.60629964 0.36709917
-0.11687094 0.14258339 0.34937537 -0.46479398 0.45041272 0.040929157 -0.7433958 1.5401665
0.16430989 1.828174 0.3332697 -0.10781538 0.10940852 -0.19335042 0.6741327 -0.115955904
-0.60051244 1.0539093 0.38063133 -0.067209 -0.47133908 -0.03404352 -1.0520072 0.554222
1.4372972 -0.99529165 -0.7413988 0.20763697 1.0454435 -1.553461 0.95040745 1.4896607
0.55223364 0.2877836 1.5779808 -0.121641025 -0.702381 -0.61077726 0.56746995 -0.53631043
-0.08720191 -0.041018665 0.6990712 1.7044172 -1.4539264 0.44101056 0.69037503 0.48897538
0.74314713 0.69738674 -0.72603035 -0.5960308 1.5860074 0.57892907 0.40305004 0.34005442
0.5964865 0.056718573 1.588699 1.2680258 0.05378978 -0.12624682 0.54190433 -0.80007374
-0.25015795 -0.4879072 0.6361987 -0.64000994 0.23047219 -0.2939053 -0.11641992 2.244296
-0.02664219 1.189715 -0.6137675 -0.14400929 0.33461583 -0.9672013 0.6316157 0.75360554
0.61176705 0.78236216 0.49839774 0.038089793 2.352774 0.96641463 0.21598479 0.5972665
-0.19994482 -0.78283453 0.32913816 -0.0008233758 1.4158468 0.9488129 1.6387875 1.659926
-0.046409577 1.3911487 -0.51314193 1.4658589 0.7784901 -0.21154207 0.8273011 -1.4098324
0.6953589 -0.73413134 0.18663439 0.94577104 -0.5083057 0.33678597 -0.10250282 -0.72723067
-0.7634551 2.170916 1.5046164 -0.3138453 1.4777029 0.29420304 0.5736185 1.1798762
-0.19339973 -0.3295505 0.37377852 1.0185049 -0.005812229 -0.7091515 -0.4603696 0.6787564
-1.1269479 0.7112828 -0.08334218 -0.040129498 0.5419343 0.45527843 0.97059906 -0.9941549
0.7655241 0.28299913 0.23187278 1.9754611 -0.055812757 -0.69513494 0.7246543 0.18509156
-0.1157326 2.1995528 -0.24508795 2.247266 -0.2575824 0.7351011 0.47963494 -0.7918483
0.19672903 1.4130427 2.4947157 2.1975706 1.4375217 0.3477936 1.664547 0.25762194
-0.13575025 -0.6454573 -1.1017421 1.8589664 0.27067783 0.2077051 0.8154989 -0.70153576
-0.0052531096 -0.0954136 0.55669355 -0.16717905 -0.41277367 0.023036443 0.28381878 0.49919167
0.18885137 -0.9354603 1.0644706 0.46162045 0.74647456 -0.5362768 -0.013407351 0.2736222
-0.5883727 -0.0016869543 0.72452796 -1.1025102 1.3059051 -0.16285525 0.69655734 0.3319555
0.43997595 0.76649773 0.68642735 -0.63193065 0.29951006 0.6130892 -0.46597022 0.5593401
1.06912 0.34238678 -0.23940176 -0.051557764 -0.9556904 0.9612316 -2.1127124 -1.487998
1.4605868 -0.13423887 0.46677446 0.7724999 0.25884783 0.36438626 0.93685013 0.96265686
0.12077955 -0.86804557 1.2138224 2.6960456 1.036084 0.79358894 0.59674114 0.55816436
-0.8668632 -0.28189602 1.2691408 0.36174905 0.7569913 0.3830248 -0.64281136 0.6098946
0.4556769 0.0725422 0.013315944 0.5180483 0.4659597 -0.5755125 0.11068091 0.46416172

l1.bias f4 [8]
00000000: 471f fb3f 013e ad3f 60ce ba3e 7755 6b3f
00000010: 3e4d 4f3f 7164 973f 6a3f 9a3f c5ca 6f3f
1.961892 1.3534547 0.36485577 0.91927284 0.8097724 1.1827527 1.2050602 0.93668777

l2.weight f4 [8, 8]
00000000: a23f e6bc 3b75 5dbe ade4 a0be 7a19 e0bd
00000010: e2c0 a9bc 6183 003e 41fb 9cbd b1e2 5ebd
00000020: 3d6d 1c3f 0014 e2bf 215c b3bf bcc2 593f
00000030: e7c9 ee3f bce9 0040 9918 1840 25f2 1b40
00000040: d3b9 8c3f e58e 8fbf 428b 0540 f4d2 3540
00000050: 50b0 b63d bfe8 cc3f 7d01 05bf dc45 d4bf
00000060: 9d93 c83e 97e6 db3f b0b0 17c0 ce3c 5040
00000070: d8da 0240 3967 993e 079d de3f fee4 40c0
00000080: 7a7c 2140 11c7 aebf cab2 d6bf 9928 423f
00000090: c340 abbf fa69 f43f 173d b03f 5e47 84bf
000000a0: 4530 1e40 7239 583f ca19 dc3f a5f8 4bc0
000000b0: 2660 1f40 1566 fdbe 7c4a 503f e0d7 0d40
000000c0: bdbc a43f c7dd b53f d912 0d40 979a 3440
000000d0: 1e97 36c0 e7ec 7bbf a7b3 9b3f 4089 f33e
000000e0: a3a5 9fbd 5195 4240 127d 53bf f1e0 e33f
000000f0: 3da5 8dbe 7d9c 4140 6547 1ac0 8c72 543e
-0.028106514 -0.21626751 -0.31424466 -0.10942359 -0.020721857 0.12550117 -0.076651104 -0.05441541
0.61104184 -1.7662354 -1.401249 0.85062766 1.8655366 2.014266 2.3765013 2.4366543
1.0994209 -1.1215483 2.0866246 2.8410006 0.08920348 1.6008528 -0.51955396 -1.6583819
0.3917512 1.7179745 -2.3701591 3.2537112 2.0446072 0.29961565 1.7391671 -3.0139766
2.5232224 -1.36545 -1.6773312 0.758432 -1.3379139 1.9094841 1.3768643 -1.033428
2.4716961 0.84462655 1.719537 -3.187051 2.4902434 -0.49491945 0.81363654 2.216301
1.2870098 1.4208306 2.2042754 2.8219354 -2.8529735 -0.9840836 1.21642 0.4756565
-0.077952646 3.0403636 -0.8261272 1.7803022 -0.2766513 3.0251763 -2.4106076 0.20746821

l2.bias f4 [8]
00000000: cef4 67be 9da7 3a3e f180 b8be c545 c7be
00000010: b53f 843f 8040 973f 5bed cd3e 71d0 623f
-0.2265198 0.18228002 -0.36035874 -0.38920417 1.0331942 1.1816559 0.4022015 0.88599306

l3.weight f4 [80, 8]
00000000: 1928 343e 2457 113f 0673 edbf d36c 1f3f
00000010: 66ee 34bf 8764 8cbe 16fb c0be 839d d9bf
00000020: d0ae aabe 09c8 85be ecc8 843e 28f3 59c0
00000030: c49f 793f 4682 58bf 9b0c 13bf e298 c93e
00000040: da63 1b3e 5fc6 2ebf 163b 583e b6bb cbbe
00000050: 5d35 26c0 92e5 7a3e ef78 54c0 c46d 403f
00000060: 4f96 843e 78a9 40be c396 d63e eb6c 8b3e
00000070: 415e 44c0 17c3 fa3d f951 8cbf 11ba 8dbf
00000080: 1425 833e 7a44 dabe 7cb2 91bf ad04 6fbf
00000090: cd6a 573e 6d02 ea3e ae8f 6fbe 9e8c 50bf
000000a0: 951a 723e 81f9 553e 216e 32bf d24e 883f
000000b0: b617 58be d3f2 37bf 7537 74c0 120b b3be
000000c0: 90dc 803d 486e 27c0 3082 df3d 6c68 0fbf
000000d0: 13a7 583f 8992 15bf 2b06 673b 9aa2 7b3e
000000e0: 7e11 abbb 9f91 38bf d80e 2cc0 55cf 20c0
000000f0: 7cab 9fbf 4250 26bf 2541 263f ab0a b73f
00000100: fc41 fb3d b3f4 193e ea28 013f ba30 90be
00000110: f76f 203f cc21 adbe c13b 8fc0 4139 72bd
00000120: 0b3d 15be 39f4 8ebf 2fb5 2c3f eb79 79bf
00000130: 3c94 cc3e 17a7 98bf ffb6 0f3f bd53 fbbf
00000140: e3ff e3bd 1874 823e 877b d6c0 486c c5bf
00000150: 3f55 7a3f 0d7a c9be a5c8 1dbf b9ff 383f
00000160: 130a b8be 3b76 863f 7385 46c0 eea5 67c0
00000170: ed50 6d3f b3a6 dfbd d287 cfbf f601 55c0
00000180: 6c9f ab3d dce8 1c3f 8680 b2c0 f2e3 98c0
00000190: 7c22 aebf 5070 943e ed08 92be 2d73 84c0
000001a0: add2 cd3d 597f 763c d4b7 a8bf 3498 0fc0
000001b0: 227d 60c0 b599 003f a675 86bd 37f8 62c0
000001c0: 8e02 373e 0933 7bbf 5f38 babf 393f 95c0
000001d0: 81b4 98c0 377a fb3e 8b11 f53e 7f6f b4bf
000001e0: 0d71 a03e 2150 1fc0 93c0 d5be 6307 44bf
000001f0: b83d 60c0 4ca5 133f 0961 38be fb96 08bf
00000200: f428 8b3e 437e 4ebf d5a5 0dc0 d7f3 da3e
00000210: fa41 32c0 4182 5dbd 2c6c eebe 5489 0e3f
00000220: 8316 7cbd 7ec9 cdbe a6db 93c0 7ec2 653f
00000230: fbaa 77be 8c52 78be e2af 16bf b7db 163e
00000240: 1bca 823e e280 25bf 90f6 35c0 d210 343f
00000250: c194 82bf 07d2 7dbe 491f 9f3e 10f0 72bf
00000260: 39fc b9bd e964 ad3e 99ae 6cc0 facf 3ec0
00000270: 6734 54c0 04b6 2f3f c2f6 70bf a4f0 a2bf
00000280: 191a 9abe 4271 4bc0 c418 83bf 8875 00bc
00000290: d067 00c0 32f5 b33e 9ccf 35bf 6dcd 223f
000002a0: b409 7c3e 536f 03bf df0b 213f 28b0 a7bf
000002b0: f4c8 f5be 8897 6ebe 7d4e aabe a113 a6bf
000002c0: e39b 283e 5e7a 8b3f f847 39c0 6cbd 65c0
000002d0: c1af fbbf 5e34 1d3f 3574 61c0 6880 36c0
000002e0: 78ab 6b3d 9c79 3dc0 c71f 67c0 2987 2fbf
000002f0: abf6 28c0 e588 123f e9ce f43e 0919 a2bb
00000300: 8dbb 0cbe 493c 15c0 53e1 70c0 3316 203f
00000310: 6179 afbf 37d4 093f 3814 56be 7d59 0ebe
00000320: 72c8 8dbd 5f2b c3bf b6d4 a6bd 5074 c3bf
00000330: 558e 46c0 ffee cd3e 5256 c13e d348 81c0
00000340: f214 883e f293 08bf a3dd 81c0 fdc2 28c0
00000350: 4877 67c0 1e39 1c3f 3ca1 093f ccf3 55c0
00000360: 6808 3a3d e5eb afbe cb4a 53bf 6a96 863d
00000370: d1ac 8ac0 1c4f 263e 4d7b 4abe daa4 ccbe
00000380: 5ae4 72bc 5fd4 f03e 4cb4 1b3c 3f51 6ec0
00000390: b161 063d 5294 cb3e 62df 00c0 740d 18c0
000003a0: 398d 69be 35c5 dd3e 1c51 3abf 5c1c 81c0
000003b0: 220c a33f c3e7 74be 10dd ebbf 2dff 5dbe
000003c0: 014b 44be 9015 003f 0452 a9bf 5ec4 a8c0
000003d0: aed5 a6bf dd4a cfbe fa40 8d3e 07ba 9fbf
000003e0: 62ee 343e 41f7 903e 6126 523e cf89 1cc0
000003f0: 56c2 1abf 23c8 3cbf 3f34 94bd 3fe6 4abf
0.17593421 0.5677359 -1.8550727 0.6227543 -0.7067627 -0.27420446 -0.37691563 -1.7001194
-0.33336496 -0.26129177 0.2593454 -3.405466 0.9750941 -0.8457378 -0.5744111 0.39374453
0.15174809 -0.6827144 0.2111629 -0.3979165 -2.597007 0.24501637 -3.3198812 0.7516749
0.25895926 -0.18814647 0.41911897 0.27231535 -3.0682528 0.12244242 -1.0962516 -1.1072408
0.25614226 -0.42630368 -1.1382594 -0.9336651 0.21036835 0.45704976 -0.23394653 -0.81464565
0.23642953 0.2089596 -0.69699293 1.0649054 -0.21102795 -0.71854895 -3.8158848 -0.34969383
0.06292069 -2.616106 0.10913503 -0.5601871 0.84629935 -0.5842672 0.003525148 0.24573746
-0.005220591 -0.720972 -2.688406 -2.5126545 -1.2474208 -0.64966214 0.6494315 1.4300131
0.12268445 0.15034752 0.50453055 -0.28162175 0.62670845 -0.33814847 -4.476044 -0.059136633
-0.14574067 -1.1168281 0.67463964 -0.9745166 0.39956844 -1.1925992 0.56138605 -1.963493
-0.11132791 0.25479198 -6.702579 -1.542367 0.97786325 -0.3935093 -0.61634284 0.722652
-0.35945186 1.0504831 -3.101895 -3.6195025 0.9270161 -0.10920467 -1.6213324 -3.3282447
0.08380017 0.61292815 -5.578189 -4.7778254 -1.3604274 0.28991938 -0.28522435 -4.1390595
0.10049949 0.0150450105 -1.31811 -2.2436647 -3.5076375 0.5023454 -0.065654084 -3.5463998
0.17872068 -0.9812475 -1.4548453 -4.6639676 -4.772034 0.4911668 0.47864947 -1.4096526
0.3133625 -2.4892657 -0.41748485 -0.7657377 -3.503767 0.576741 -0.18005766 -0.5335538
0.27179682 -0.8066141 -2.2132466 0.4276416 -2.785277 -0.054079298 -0.46566904 0.55678296
-0.061544906 -0.4019279 -4.6205626 0.89749897 -0.24186318 -0.24250239 -0.58862126 0.14732252
0.2554482 -0.64649785 -2.843174 0.70338166 -1.0201646 -0.2478715 0.31078556 -0.94897556
-0.09081311 0.3386605 -3.6981566 -2.981444 -3.3156984 0.6863711 -0.9412652 -1.2729688
-0.30098036 -3.1787877 -1.0241933 -0.007840522 -2.0063362 0.35148007 -0.7101991 0.63594705
0.24613076 -0.5134174 0.6290874 -1.3100634 -0.48004878 -0.23299992 -0.33263007 -1.297474
0.16465716 1.0896719 -2.8950176 -3.5896864 -1.9663011 0.6140803 -3.5227177 -2.8515873
0.057536572 -2.9605474 -3.6113145 -0.68565613 -2.6400554 0.57240134 0.4781411 -0.004946832
-0.1374342 -2.3318045 -3.7637527 0.62533873 -1.3708917 0.5383944 -0.2090615 -0.13901325
-0.069229975 -1.5247611 -0.0814604 -1.5269871 -3.1024373 0.40221402 0.3776117 -4.0401397
0.2657848 -0.53350747 -4.0583053 -2.6369011 -3.6166553 0.61024654 0.5376165 -3.3430052
0.045418173 -0.3435966 -0.82536 0.06571658 -4.3335958 0.16241115 -0.19773598 -0.39969522
-0.014824951 0.47037026 0.009503435 -3.7237089 0.03280801 0.39761597 -2.0136342 -2.375821
-0.22807778 0.4331452 -0.72780013 -4.034712 1.2738078 -0.23916535 -1.8426838 -0.21679373
-0.19169237 0.500329 -1.3228154 -5.2739706 -1.303396 -0.40486804 0.27588636 -1.2478646
0.17669061 0.2831364 0.20522453 -2.4459112 -0.60452783 -0.73742884 -0.07236528 -0.7925758

l3.bias f4 [80]
00000000: 74c4 adbe c58c eb3e 7301 8e3e 6744 f7bd
00000010: 6e1f 66bd e4d1 a33d 61e7 42be 4fe6 0a3f
00000020: 9e0f c4be 5fe0 2f3e c8de bb3e b7b9 ee3d
00000030: e795 90be d1b4 4abe 7c34 d93e 7df8 84be
00000040: 8c54 cd3d b0eb 2b3b 01ea f43b 3eab ef3e
00000050: 8986 d23d 8e02 b7be 8e78 383f 454a c73e
00000060: 624c 203e 4646 1f3c ba6a 023f 37af f5be
00000070: f837 b03e dd4a b33e 389b 39be 9ef6 03bf
00000080: 1a24 8ebc 1a83 493d b5fc 5bbe 01eb de3d
00000090: d0ae 553e 544b 1bbf cf55 3a3e abd7 b3bd
000000a0: f06d a3be 071e 5a3e 6b41 afbe fd08 0dbf
000000b0: cad1 f43e b257 13be aa98 6bbe e31c c9be
000000c0: 40e7 3bbf 232d 603e c8f7 0ebf 628d 053d
000000d0: ea78 143f 9ac9 113e 3ce9 8cbe 7d69 e23e
000000e0: a647 48bf 6c37 2fbe 3a4b 313e edcb 11bf
000000f0: f40f 2d3f 6160 993d 1684 0fbf 895d 033f
00000100: 505f 39bf 75f3 693d afcd cdbe 5073 91be
00000110: 3369 b03d 7c4f 30bf af0a 41bf cb80 a7be
00000120: 70aa 31be a356 41be fb6c 46be 0384 003e
00000130: 6ddf 633e 611a 923d b110 50bf b956 e5be
-0.33938944 0.46005836 0.2773548 -0.120735936 -0.056182317 0.07999018 -0.19033577 0.54257673
-0.38293165 0.17175435 0.36693406 0.11656516 -0.28239366 -0.19795538 0.42422855 -0.25970832
0.10025892 0.002623301 0.0074741845 0.46810335 0.10279567 -0.35744137 0.7205895 0.3892385
0.15654138 0.009721344 0.509441 -0.4798524 0.344177 0.35018054 -0.18125618 -0.5154818
-0.017351199 0.049197294 -0.21483119 0.10884667 0.20867467 -0.60661817 0.18196796 -0.0878137
-0.31919813 0.21300517 -0.34229597 -0.5509184 0.47816306 -0.14388922 -0.23007455 -0.3927985
-0.73399734 0.21892218 -0.55846834 0.032605536 0.57997 0.14237061 -0.27521694 0.44221106
-0.78234327 -0.17110986 0.17313853 -0.5695179 0.6760247 0.07489086 -0.5606092 0.513146
-0.7241106 0.057116944 -0.40195987 -0.2840829 0.08613815 -0.68871284 -0.75406927 -0.3271545
-0.17350173 -0.18880706 -0.1937751 0.12550358 0.22253199 0.071339376 -0.8127547 -0.44792727
